…
Get dataset gisette 2 imp 0.1 test 0 4
Get dataset gisette 3 imp 0.1 test 0 4
2023-08-29 20:33:13 Classes: 2 tensor([0, 1])
2023-08-29 20:33:13 Namespace(data='log/comm', num_clients=4, gpu=0, epochs=50, batch_size=512, lr=0.0001, momentum=0.9, lr_decay_freq=30, lr_decay=0.1, print_freq=100, resume='', pretrained=False, local_epochs=1, quant_level=4, vecdim=1, comp='topk', seed=0, dataset='gisette', splitter='imp', weight='0.1', dataseed='0', folder='2023-08-29 20-33-08')
🔵 VertiBench_Cls_bottom all_features:  1290
2023-08-29 20:33:13 Client 0 mode VertiBench_Cls_bottom(
  (linear): Sequential(
    (0): Linear(in_features=1290, out_features=100, bias=True)
    (1): ReLU()
    (2): Linear(in_features=100, out_features=100, bias=True)
    (3): ReLU()
  )
)
🔵 VertiBench_Cls_bottom all_features:  3477
2023-08-29 20:33:13 Client 1 mode VertiBench_Cls_bottom(
  (linear): Sequential(
    (0): Linear(in_features=3477, out_features=100, bias=True)
    (1): ReLU()
    (2): Linear(in_features=100, out_features=100, bias=True)
    (3): ReLU()
  )
)
🔵 VertiBench_Cls_bottom all_features:  93
2023-08-29 20:33:13 Client 2 mode VertiBench_Cls_bottom(
  (linear): Sequential(
    (0): Linear(in_features=93, out_features=100, bias=True)
    (1): ReLU()
    (2): Linear(in_features=100, out_features=100, bias=True)
    (3): ReLU()
  )
)
🔵 VertiBench_Cls_bottom all_features:  140
2023-08-29 20:33:13 Client 3 mode VertiBench_Cls_bottom(
  (linear): Sequential(
    (0): Linear(in_features=140, out_features=100, bias=True)
    (1): ReLU()
    (2): Linear(in_features=100, out_features=100, bias=True)
    (3): ReLU()
  )
)
🔵 VertiBench_Cls_top num_classes:  2
2023-08-29 20:33:13 Client 4 mode VertiBench_Cls_top(
  (linear): Sequential(
    (0): Linear(in_features=400, out_features=200, bias=True)
    (1): ReLU()
    (2): Linear(in_features=200, out_features=2, bias=True)
  )
)
🔵 VertiBench_Cls_top num_classes:  2
2023-08-29 20:33:13 Server model: VertiBench_Cls_top(
  (linear): Sequential(
    (0): Linear(in_features=400, out_features=200, bias=True)
    (1): ReLU()
    (2): Linear(in_features=200, out_features=2, bias=True)
  )
)
2023-08-29 20:33:36 
-----------------------------------
2023-08-29 20:33:36 Epoch: [1/50]
Start training
2023-08-29 20:33:38 Time taken: 1.38 sec.
2023-08-29 20:33:39 Time taken: 2.57 sec.
2023-08-29 20:33:39 
-----------------------------------
2023-08-29 20:33:39 Epoch: [2/50]
Start training
2023-08-29 20:33:40 Time taken: 0.79 sec.
2023-08-29 20:33:41 Time taken: 1.95 sec.
…
