…
2023-08-29 21:10:27 Classes: 26 tensor([ 0,  1,  2,  3,  4,  5,  6,  7,  8,  9, 10, 11, 12, 13, 14, 15, 16, 17,
        18, 19, 20, 21, 22, 23, 24, 25])
2023-08-29 21:10:27 Namespace(data='log/comm', num_clients=4, gpu=0, epochs=50, batch_size=512, lr=0.0001, momentum=0.9, lr_decay_freq=30, lr_decay=0.1, print_freq=100, resume='', pretrained=False, local_epochs=1, quant_level=4, vecdim=1, comp='topk', seed=0, dataset='letter', splitter='imp', weight='0.1', dataseed='0', folder='2023-08-29 21-10-25')
🔵 VertiBench_Cls_bottom all_features:  3
2023-08-29 21:10:27 Client 0 mode VertiBench_Cls_bottom(
  (linear): Sequential(
    (0): Linear(in_features=3, out_features=100, bias=True)
    (1): ReLU()
    (2): Linear(in_features=100, out_features=100, bias=True)
    (3): ReLU()
  )
)
🔵 VertiBench_Cls_bottom all_features:  10
2023-08-29 21:10:27 Client 1 mode VertiBench_Cls_bottom(
  (linear): Sequential(
    (0): Linear(in_features=10, out_features=100, bias=True)
    (1): ReLU()
    (2): Linear(in_features=100, out_features=100, bias=True)
    (3): ReLU()
  )
)
🔵 VertiBench_Cls_bottom all_features:  2
2023-08-29 21:10:27 Client 2 mode VertiBench_Cls_bottom(
  (linear): Sequential(
    (0): Linear(in_features=2, out_features=100, bias=True)
    (1): ReLU()
    (2): Linear(in_features=100, out_features=100, bias=True)
    (3): ReLU()
  )
)
🔵 VertiBench_Cls_bottom all_features:  1
2023-08-29 21:10:27 Client 3 mode VertiBench_Cls_bottom(
  (linear): Sequential(
    (0): Linear(in_features=1, out_features=100, bias=True)
    (1): ReLU()
    (2): Linear(in_features=100, out_features=100, bias=True)
    (3): ReLU()
  )
)
🔵 VertiBench_Cls_top num_classes:  26
2023-08-29 21:10:27 Client 4 mode VertiBench_Cls_top(
  (linear): Sequential(
    (0): Linear(in_features=400, out_features=200, bias=True)
    (1): ReLU()
    (2): Linear(in_features=200, out_features=26, bias=True)
  )
)
🔵 VertiBench_Cls_top num_classes:  26
2023-08-29 21:10:27 Server model: VertiBench_Cls_top(
  (linear): Sequential(
    (0): Linear(in_features=400, out_features=200, bias=True)
    (1): ReLU()
    (2): Linear(in_features=200, out_features=26, bias=True)
  )
)
2023-08-29 21:10:54 
-----------------------------------
2023-08-29 21:10:54 Epoch: [1/50]
Start training
2023-08-29 21:10:55 Time taken: 1.42 sec.
2023-08-29 21:10:56 Time taken: 2.54 sec.
2023-08-29 21:10:56 
-----------------------------------
2023-08-29 21:10:56 Epoch: [2/50]
Start training
2023-08-29 21:10:57 Time taken: 1.04 sec.
2023-08-29 21:10:58 Time taken: 2.15 sec.
…
