…
Get dataset epsilon 2 imp 0.1 test 0 4
Get dataset epsilon 3 imp 0.1 test 0 4
2023-08-29 21:49:28 Classes: 2 tensor([0, 1])
2023-08-29 21:49:28 Namespace(data='log/comm', num_clients=4, gpu=0, epochs=50, batch_size=512, lr=0.0001, momentum=0.9, lr_decay_freq=30, lr_decay=0.1, print_freq=100, resume='', pretrained=False, local_epochs=1, quant_level=4, vecdim=1, comp='topk', seed=0, dataset='epsilon', splitter='imp', weight='0.1', dataseed='0', folder='2023-08-29 21-47-38')
🔵 VertiBench_Cls_bottom all_features:  540
2023-08-29 21:49:28 Client 0 mode VertiBench_Cls_bottom(
  (linear): Sequential(
    (0): Linear(in_features=540, out_features=100, bias=True)
    (1): ReLU()
    (2): Linear(in_features=100, out_features=100, bias=True)
    (3): ReLU()
  )
)
🔵 VertiBench_Cls_bottom all_features:  1345
2023-08-29 21:49:28 Client 1 mode VertiBench_Cls_bottom(
  (linear): Sequential(
    (0): Linear(in_features=1345, out_features=100, bias=True)
    (1): ReLU()
    (2): Linear(in_features=100, out_features=100, bias=True)
    (3): ReLU()
  )
)
🔵 VertiBench_Cls_bottom all_features:  58
2023-08-29 21:49:28 Client 2 mode VertiBench_Cls_bottom(
  (linear): Sequential(
    (0): Linear(in_features=58, out_features=100, bias=True)
    (1): ReLU()
    (2): Linear(in_features=100, out_features=100, bias=True)
    (3): ReLU()
  )
)
🔵 VertiBench_Cls_bottom all_features:  57
2023-08-29 21:49:28 Client 3 mode VertiBench_Cls_bottom(
  (linear): Sequential(
    (0): Linear(in_features=57, out_features=100, bias=True)
    (1): ReLU()
    (2): Linear(in_features=100, out_features=100, bias=True)
    (3): ReLU()
  )
)
🔵 VertiBench_Cls_top num_classes:  2
2023-08-29 21:49:28 Client 4 mode VertiBench_Cls_top(
  (linear): Sequential(
    (0): Linear(in_features=400, out_features=200, bias=True)
    (1): ReLU()
    (2): Linear(in_features=200, out_features=2, bias=True)
  )
)
🔵 VertiBench_Cls_top num_classes:  2
2023-08-29 21:49:28 Server model: VertiBench_Cls_top(
  (linear): Sequential(
    (0): Linear(in_features=400, out_features=200, bias=True)
    (1): ReLU()
    (2): Linear(in_features=200, out_features=2, bias=True)
  )
)
2023-08-29 21:50:15 Iter [1/625]: Avg Test Acc: 50.09 - Avg Train Acc: 50.03 - Avg Loss: 0.6938
2023-08-29 21:50:15 
-----------------------------------
2023-08-29 21:50:15 Epoch: [1/50]
Start training
2023-08-29 21:50:19 	Server Iter [100/625] Loss: 0.6926
2023-08-29 21:50:22 	Server Iter [200/625] Loss: 0.6931
2023-08-29 21:50:25 	Server Iter [300/625] Loss: 0.6932
…
