…
Get dataset epsilon 2 imp 0.1 test 0 4
Get dataset epsilon 3 imp 0.1 test 0 4
2023-08-29 21:48:49 Classes: 2 tensor([0, 1])
2023-08-29 21:48:49 Namespace(data='log/comm', num_clients=4, gpu=0, epochs=50, batch_size=512, lr=0.0001, momentum=0.9, lr_decay_freq=30, lr_decay=0.1, print_freq=100, resume='', pretrained=False, local_epochs=1, quant_level=4, vecdim=1, comp='topk', seed=0, dataset='epsilon', splitter='imp', weight='0.1', dataseed='0', folder='2023-08-29 21-47-37')
🔵 VertiBench_Cls_bottom all_features:  540
2023-08-29 21:48:49 Client 0 mode VertiBench_Cls_bottom(
  (linear): Sequential(
    (0): Linear(in_features=540, out_features=100, bias=True)
    (1): ReLU()
    (2): Linear(in_features=100, out_features=100, bias=True)
    (3): ReLU()
  )
)
🔵 VertiBench_Cls_bottom all_features:  1345
2023-08-29 21:48:49 Client 1 mode VertiBench_Cls_bottom(
  (linear): Sequential(
    (0): Linear(in_features=1345, out_features=100, bias=True)
    (1): ReLU()
    (2): Linear(in_features=100, out_features=100, bias=True)
    (3): ReLU()
  )
)
🔵 VertiBench_Cls_bottom all_features:  58
2023-08-29 21:48:49 Client 2 mode VertiBench_Cls_bottom(
  (linear): Sequential(
    (0): Linear(in_features=58, out_features=100, bias=True)
    (1): ReLU()
    (2): Linear(in_features=100, out_features=100, bias=True)
    (3): ReLU()
  )
)
🔵 VertiBench_Cls_bottom all_features:  57
2023-08-29 21:48:49 Client 3 mode VertiBench_Cls_bottom(
  (linear): Sequential(
    (0): Linear(in_features=57, out_features=100, bias=True)
    (1): ReLU()
    (2): Linear(in_features=100, out_features=100, bias=True)
    (3): ReLU()
  )
)
🔵 VertiBench_Cls_top num_classes:  2
2023-08-29 21:48:49 Client 4 mode VertiBench_Cls_top(
  (linear): Sequential(
    (0): Linear(in_features=400, out_features=200, bias=True)
    (1): ReLU()
    (2): Linear(in_features=200, out_features=2, bias=True)
  )
)
🔵 VertiBench_Cls_top num_classes:  2
2023-08-29 21:48:49 Server model: VertiBench_Cls_top(
  (linear): Sequential(
    (0): Linear(in_features=400, out_features=200, bias=True)
    (1): ReLU()
    (2): Linear(in_features=200, out_features=2, bias=True)
  )
)
2023-08-29 21:50:15 
-----------------------------------
2023-08-29 21:50:15 Epoch: [1/50]
Start training
2023-08-29 21:50:34 Time taken: 19.28 sec.
2023-08-29 21:50:52 Time taken: 36.65 sec.
2023-08-29 21:50:52 
-----------------------------------
2023-08-29 21:50:52 Epoch: [2/50]
Start training
2023-08-29 21:51:11 Time taken: 19.19 sec.
2023-08-29 21:51:29 Time taken: 37.42 sec.
…
