…
Get dataset covtype 2 imp 0.1 test 0 4
Get dataset covtype 3 imp 0.1 test 0 4
2023-08-29 20:39:21 Classes: 7 tensor([0, 1, 2, 3, 4, 5, 6])
2023-08-29 20:39:21 Namespace(data='log/comm', num_clients=4, gpu=0, epochs=50, batch_size=512, lr=0.0001, momentum=0.9, lr_decay_freq=30, lr_decay=0.1, print_freq=100, resume='', pretrained=False, local_epochs=1, quant_level=4, vecdim=1, comp='topk', seed=0, dataset='covtype', splitter='imp', weight='0.1', dataseed='0', folder='2023-08-29 20-39-15')
🔵 VertiBench_Cls_bottom all_features:  21
2023-08-29 20:39:21 Client 0 mode VertiBench_Cls_bottom(
  (linear): Sequential(
    (0): Linear(in_features=21, out_features=100, bias=True)
    (1): ReLU()
    (2): Linear(in_features=100, out_features=100, bias=True)
    (3): ReLU()
  )
)
🔵 VertiBench_Cls_bottom all_features:  28
2023-08-29 20:39:21 Client 1 mode VertiBench_Cls_bottom(
  (linear): Sequential(
    (0): Linear(in_features=28, out_features=100, bias=True)
    (1): ReLU()
    (2): Linear(in_features=100, out_features=100, bias=True)
    (3): ReLU()
  )
)
🔵 VertiBench_Cls_bottom all_features:  1
2023-08-29 20:39:21 Client 2 mode VertiBench_Cls_bottom(
  (linear): Sequential(
    (0): Linear(in_features=1, out_features=100, bias=True)
    (1): ReLU()
    (2): Linear(in_features=100, out_features=100, bias=True)
    (3): ReLU()
  )
)
🔵 VertiBench_Cls_bottom all_features:  4
2023-08-29 20:39:21 Client 3 mode VertiBench_Cls_bottom(
  (linear): Sequential(
    (0): Linear(in_features=4, out_features=100, bias=True)
    (1): ReLU()
    (2): Linear(in_features=100, out_features=100, bias=True)
    (3): ReLU()
  )
)
🔵 VertiBench_Cls_top num_classes:  7
2023-08-29 20:39:21 Client 4 mode VertiBench_Cls_top(
  (linear): Sequential(
    (0): Linear(in_features=400, out_features=200, bias=True)
    (1): ReLU()
    (2): Linear(in_features=200, out_features=7, bias=True)
  )
)
🔵 VertiBench_Cls_top num_classes:  7
2023-08-29 20:39:21 Server model: VertiBench_Cls_top(
  (linear): Sequential(
    (0): Linear(in_features=400, out_features=200, bias=True)
    (1): ReLU()
    (2): Linear(in_features=200, out_features=7, bias=True)
  )
)
2023-08-29 20:40:01 
-----------------------------------
2023-08-29 20:40:01 Epoch: [1/50]
Start training
2023-08-29 20:40:20 Time taken: 19.05 sec.
2023-08-29 20:40:34 Time taken: 32.96 sec.
2023-08-29 20:40:34 
-----------------------------------
2023-08-29 20:40:34 Epoch: [2/50]
Start training
2023-08-29 20:40:53 Time taken: 18.44 sec.
2023-08-29 20:41:08 Time taken: 33.18 sec.
…
