…
Get dataset realsim 2 imp 0.1 test 0 4
Get dataset realsim 3 imp 0.1 test 0 4
2023-08-29 21:18:28 Classes: 2 tensor([0, 1])
2023-08-29 21:18:28 Namespace(data='log/comm', num_clients=4, gpu=0, epochs=50, batch_size=512, lr=0.0001, momentum=0.9, lr_decay_freq=30, lr_decay=0.1, print_freq=100, resume='', pretrained=False, local_epochs=1, quant_level=4, vecdim=1, comp='topk', seed=0, dataset='realsim', splitter='imp', weight='0.1', dataseed='0', folder='2023-08-29 21-15-00')
🔵 VertiBench_Cls_bottom all_features:  5646
2023-08-29 21:18:28 Client 0 mode VertiBench_Cls_bottom(
  (linear): Sequential(
    (0): Linear(in_features=5646, out_features=100, bias=True)
    (1): ReLU()
    (2): Linear(in_features=100, out_features=100, bias=True)
    (3): ReLU()
  )
)
🔵 VertiBench_Cls_bottom all_features:  14280
2023-08-29 21:18:28 Client 1 mode VertiBench_Cls_bottom(
  (linear): Sequential(
    (0): Linear(in_features=14280, out_features=100, bias=True)
    (1): ReLU()
    (2): Linear(in_features=100, out_features=100, bias=True)
    (3): ReLU()
  )
)
🔵 VertiBench_Cls_bottom all_features:  434
2023-08-29 21:18:28 Client 2 mode VertiBench_Cls_bottom(
  (linear): Sequential(
    (0): Linear(in_features=434, out_features=100, bias=True)
    (1): ReLU()
    (2): Linear(in_features=100, out_features=100, bias=True)
    (3): ReLU()
  )
)
🔵 VertiBench_Cls_bottom all_features:  598
2023-08-29 21:18:28 Client 3 mode VertiBench_Cls_bottom(
  (linear): Sequential(
    (0): Linear(in_features=598, out_features=100, bias=True)
    (1): ReLU()
    (2): Linear(in_features=100, out_features=100, bias=True)
    (3): ReLU()
  )
)
🔵 VertiBench_Cls_top num_classes:  2
2023-08-29 21:18:28 Client 4 mode VertiBench_Cls_top(
  (linear): Sequential(
    (0): Linear(in_features=400, out_features=200, bias=True)
    (1): ReLU()
    (2): Linear(in_features=200, out_features=2, bias=True)
  )
)
🔵 VertiBench_Cls_top num_classes:  2
2023-08-29 21:18:28 Server model: VertiBench_Cls_top(
  (linear): Sequential(
    (0): Linear(in_features=400, out_features=200, bias=True)
    (1): ReLU()
    (2): Linear(in_features=200, out_features=2, bias=True)
  )
)
2023-08-29 21:19:05 
-----------------------------------
2023-08-29 21:19:05 Epoch: [1/50]
Start training
2023-08-29 21:19:16 Time taken: 10.99 sec.
2023-08-29 21:19:29 Time taken: 23.78 sec.
2023-08-29 21:19:29 
-----------------------------------
2023-08-29 21:19:29 Epoch: [2/50]
Start training
2023-08-29 21:19:40 Time taken: 10.78 sec.
2023-08-29 21:19:53 Time taken: 23.42 sec.
…
