…
Get dataset radar 3 imp 0.1 test 0 4
Radar have tensor([0, 1, 2, 3, 4, 5, 6]) classes
2023-08-29 22:48:36 Classes: 7 tensor([0, 1, 2, 3, 4, 5, 6])
2023-08-29 22:48:36 Namespace(data='log/comm', num_clients=4, gpu=0, epochs=50, batch_size=512, lr=0.0001, momentum=0.9, lr_decay_freq=30, lr_decay=0.1, print_freq=100, resume='', pretrained=False, local_epochs=1, quant_level=4, vecdim=1, comp='topk', seed=0, dataset='radar', splitter='imp', weight='0.1', dataseed='0', folder='2023-08-29 22-48-24')
🔵 VertiBench_Cls_bottom all_features:  48
2023-08-29 22:48:36 Client 0 mode VertiBench_Cls_bottom(
  (linear): Sequential(
    (0): Linear(in_features=48, out_features=100, bias=True)
    (1): ReLU()
    (2): Linear(in_features=100, out_features=100, bias=True)
    (3): ReLU()
  )
)
🔵 VertiBench_Cls_bottom all_features:  114
2023-08-29 22:48:36 Client 1 mode VertiBench_Cls_bottom(
  (linear): Sequential(
    (0): Linear(in_features=114, out_features=100, bias=True)
    (1): ReLU()
    (2): Linear(in_features=100, out_features=100, bias=True)
    (3): ReLU()
  )
)
🔵 VertiBench_Cls_bottom all_features:  5
2023-08-29 22:48:36 Client 2 mode VertiBench_Cls_bottom(
  (linear): Sequential(
    (0): Linear(in_features=5, out_features=100, bias=True)
    (1): ReLU()
    (2): Linear(in_features=100, out_features=100, bias=True)
    (3): ReLU()
  )
)
🔵 VertiBench_Cls_bottom all_features:  7
2023-08-29 22:48:36 Client 3 mode VertiBench_Cls_bottom(
  (linear): Sequential(
    (0): Linear(in_features=7, out_features=100, bias=True)
    (1): ReLU()
    (2): Linear(in_features=100, out_features=100, bias=True)
    (3): ReLU()
  )
)
🔵 VertiBench_Cls_top num_classes:  7
2023-08-29 22:48:36 Client 4 mode VertiBench_Cls_top(
  (linear): Sequential(
    (0): Linear(in_features=400, out_features=200, bias=True)
    (1): ReLU()
    (2): Linear(in_features=200, out_features=7, bias=True)
  )
)
🔵 VertiBench_Cls_top num_classes:  7
2023-08-29 22:48:36 Server model: VertiBench_Cls_top(
  (linear): Sequential(
    (0): Linear(in_features=400, out_features=200, bias=True)
    (1): ReLU()
    (2): Linear(in_features=200, out_features=7, bias=True)
  )
)
2023-08-29 22:49:07 Iter [1/510]: Avg Test Acc: 1.13 - Avg Train Acc: 1.10 - Avg Loss: 1.9676
2023-08-29 22:49:08 
-----------------------------------
2023-08-29 22:49:08 Epoch: [1/50]
Start training
2023-08-29 22:49:10 	Server Iter [100/510] Loss: 1.9377
2023-08-29 22:49:12 	Server Iter [200/510] Loss: 1.9122
2023-08-29 22:49:14 	Server Iter [300/510] Loss: 1.8653
…
